Sponsor/models/model.pth (torch, 11671 bytes, 6 tensors)

layers.0.weight f4 [32, 5]
000000 c2 3e 32 be b9 d2 56 be ec 25 50 3e 52 16 52 3e
       -0.17406753 -0.20978822 0.20326966 0.20516327
000010 1c 47 85 3e 82 fa a3 be 04 98 89 3d a6 42 50 be
       0.26030815 -0.3202706 0.06718448 -0.20337924
000020 04 8f 1e 3e 2d 63 93 bc dc 85 60 be 13 a4 93 be
       0.15484244 -0.017991627 -0.21926063 -0.28836116
000030 cb 4a 60 be 73 57 4f be 72 fe 0f be f1 a3 2b 3e
       -0.21903531 -0.20248203 -0.14061907 0.16761757
000040 c8 3f b8 bd ea 90 c0 3d 88 ca c8 3b a6 11 a2 3e
       -0.0899654 0.0940264 0.006127659 0.3165409
000050 79 78 d5 be b3 f1 be 3e 1f b6 87 be c3 41 2f be
       -0.41693476 0.37293777 -0.26506135 -0.1711493
000060 e2 a9 54 3e ed 8a d5 be 95 b9 d0 be 7b 4b c6 3d
       0.2076793 -0.41707554 -0.40766588 0.096823655
000070 5d 10 5f be 14 6f d3 be bc fa bf be 44 0c 84 3e
       -0.21783586 -0.41295683 -0.37495983 0.25790608
000080 7c fe be 3b d0 ea 3c 3e b0 01 6d be 7d dd 82 3e
       0.0058286767 0.18448949 -0.23145175 0.25559607
000090 cd b2 31 bd a5 ff c9 3c 34 8f 79 3e 4e a5 08 bb
       -0.04338341 0.024658034 0.24371034 -0.0020850482
0000a0 b6 3e ad be d9 00 24 be d5 bf 86 bd ee 4e 97 bd
       -0.33836907 -0.16015948 -0.06579558 -0.073881015
0000b0 82 f0 53 be 68 bd 9a be 3e 5c cb be 3e 65 27 be
       -0.20697215 -0.3022263 -0.39718813 -0.16347215
0000c0 40 c2 80 3e 9d f5 a5 be f7 78 37 be d3 2f 1f bd
       0.251482 -0.3241395 -0.17917238 -0.038863968
0000d0 01 b9 9a be ea 8c c0 3e 61 c9 37 bb 68 12 d1 bd
       -0.30219272 0.3760751 -0.0028043615 -0.10208589
0000e0 d5 dc 3f be 6b be 6e 3d 35 6e 97 be 89 f4 c6 3d
       -0.18736584 0.058287065 -0.2957627 0.0971461
0000f0 dd 2d 5e be b9 c5 b7 3e 05 a2 d0 bd ff 4a 37 be
       -0.21697183 0.35893038 -0.10187153 -0.17899702
000100 4e e4 68 bd cf 72 a5 3e a1 bf a6 be 56 ce 15 3e
       -0.056858353 0.32314155 -0.32568076 0.14629492
000110 f2 93 30 be f1 3e a0 3c b8 93 98 ba 71 2e c4 3e
       -0.17243937 0.019561263 -0.0011640703 0.38316682
000120 81 49 d1 be aa 5b c0 be d1 a0 de 3d e1 01 ac bd
       -0.40876392 -0.37569934 0.10870517 -0.08398796
000130 2d 1b 35 be 56 02 aa be 04 64 83 3c 6e 4c d8 3e
       -0.17686148 -0.33204907 0.016038902 0.4224581
000140 3a d4 25 bc 97 1e 37 be 40 56 bc be a6 46 b7 be
       -0.0101214 -0.17882763 -0.36784554 -0.35796088
000150 82 58 0f 3d 4b 88 b9 3e e3 7b 21 be 13 2a ae be
       0.034996517 0.36236796 -0.15769915 -0.34016475
000160 8e 53 07 3e 30 c2 ec 3d 13 80 da 3e 0b dc 17 be
       0.13215467 0.11560476 0.42675838 -0.14830033
000170 eb 74 4a 3e 8f a4 9f be 4d e5 46 3e 17 ce 20 3e
       0.19771163 -0.31180236 0.19423409 0.15703617
000180 23 b4 4e 3e 22 dc fa bd 91 86 8d bd 03 18 8a be
       0.20185904 -0.12249018 -0.06910432 -0.26971444
000190 4e 88 9e be b7 3b 6c bd d7 d9 0f 3e 6a 64 39 3e
       -0.30963367 -0.057674136 0.14047943 0.18104711
0001a0 08 a8 da be 58 ac 84 3e a8 aa 95 bd 05 fd 83 be
       -0.42706323 0.25912738 -0.07307941 -0.25778976
0001b0 45 b3 3d 3e f3 8c de be c6 6e 4a be 6d 4e 97 3e
       0.18525417 -0.4346691 -0.19768819 0.29552022
0001c0 dc ee 94 3e f8 da a0 be 85 5f d2 be ae 57 88 be
       0.29088485 -0.3141706 -0.410885 -0.26629394
0001d0 bc f7 16 3e c0 8d 2e bd 61 1a a9 be a2 6c de be
       0.1474294 -0.042615652 -0.33027938 -0.43442255
0001e0 55 21 80 be 76 69 d5 3e 0e a2 90 3e 0c ad e6 bd
       -0.2502543 0.41682023 0.28248638 -0.11263475
0001f0 ad f6 de be b4 00 d6 3d ef c6 0f 3e 7b e1 82 3c
       -0.43547574 0.10449353 0.14040731 0.015976658
000200 16 d7 be 3e 40 87 35 3d 4e 29 c6 be bd 2a a4 be
       0.37273473 0.044318438 -0.38703388 -0.32063857
000210 e6 b0 cc 3e 8c a8 cd 3e a8 f8 bf 3e 03 f0 e5 3d
       0.39978713 0.40167654 0.37494397 0.11227419
000220 3e da bc bd d6 58 a1 3e 55 3c ac 3e b2 f9 c7 3e
       -0.09221314 0.3151309 0.3363978 0.3905769
000230 8f d9 ab be cd 87 4b bd a8 bd ea bc c2 b0 62 be
       -0.33564422 -0.049690057 -0.028654888 -0.2213774
000240 df 14 2f be b8 1f 93 be 1f 6e e6 bc 40 84 91 bc
       -0.17097805 -0.28735137 -0.028128682 -0.017763257
000250 ca 10 2a be 56 f3 df 3e 33 b6 4d be f2 29 45 3e
       -0.16607967 0.43740338 -0.20089035 0.19254282
000260 8c 92 05 be 71 f1 1f 3e 3c 11 8f be c2 2f 9e 3d
       -0.13044184 0.15619446 -0.27942836 0.07723953
000270 3d 6e a2 3e 1f a4 39 bd 2c 41 9f be ca 81 56 3e
       0.3172473 -0.045322534 -0.3110441 0.20947948

layers.0.bias f4 [32]
000000 e4 10 87 bc 56 cf 96 be a7 53 27 3d 65 c8 b8 3e
       -0.016487546 -0.2945506 0.04085126 0.3609039
000010 82 3c 05 be 74 b6 b4 3e 1d a9 83 be b5 58 88 3e
       -0.13011363 0.3529545 -0.2571496 0.26630178
000020 fe a6 c9 3e 93 2e 09 bd 6e a8 86 3d 09 47 b7 be
       0.39385217 -0.033491682 0.06575094 -0.35796383
000030 e3 62 e3 be fd 1b 69 3e 7a 18 83 be 7e 87 82 bd
       -0.44411382 0.22764583 -0.25604612 -0.06373499
000040 17 00 95 3e 43 c0 9c 3e d9 0b b1 3e 94 ed 34 be
       0.2910163 0.30615434 0.34579352 -0.17668754
000050 e5 f5 a2 3e bc 06 fd 3c 9e 96 3f 3d ce 8f 5f 3e
       0.31828228 0.030887 0.0467745 0.21832201
000060 1a 54 c4 3d 77 97 cc be b6 bd f9 3d 0d 28 06 be
       0.095863536 -0.39959309 0.121943876 -0.13101216
000070 42 d1 61 bc 23 26 db be b6 fd f6 3d 42 7e 10 be
       -0.013782801 -0.42802534 0.1206011 -0.14110664

layers.2.weight f4 [64, 32]
000000 bc c1 05 3e 53 da 9f bd 95 73 54 bb a4 c6 06 3d
       0.13062185 -0.07805314 -0.0032417525 0.032904282
000010 2c 18 0b be 02 5a 8c 3d 94 68 36 3d 18 a3 1c be
       -0.1358344 0.06853105 0.044533327 -0.1529659
000020 b0 9c 2b 3e b4 64 c1 bd 88 a0 71 bd fc 8a 82 bd
       0.1675899 -0.09443036 -0.058990985 -0.063741654
000030 1c 8e 77 bd 37 19 ed 3d 21 9f 32 be 98 f7 ec bd
       -0.06043826 0.11577075 -0.17443515 -0.11570662
000040 41 bf 89 bd 08 49 8b bd 46 8c fd bd 87 30 05 3e
       -0.06725932 -0.06801039 -0.12380271 0.13006793
000050 3f 01 30 be c8 19 f4 bd 50 b1 3b 3c c0 58 db bb
       -0.17187975 -0.1191898 0.011455849 -0.0066939294
000060 00 d4 14 be cd 47 2b be a9 07 19 3e 1d d4 56 3d
       -0.14533997 -0.16726609 0.14944328 0.05244838
000070 12 37 c4 3d 5f e0 2a be 6c ed 05 3d bc 52 80 3d
       0.09580816 -0.16687153 0.032697126 0.0626578
000080 64 e8 0c bd 03 cb 9f bd 51 af 2f be f0 bb 78 3c
       -0.034401312 -0.07802393 -0.17156722 0.015181527
000090 6d 1d e7 bd 90 13 8a 3c ed 0d 14 3e 8b 68 2c be
       -0.112849094 0.016855031 0.14458437 -0.16836755
0000a0 26 c6 32 be c0 35 51 3b e8 6b 24 be 20 23 55 3c
       -0.174584 0.0031922907 -0.16056788 0.013008863
0000b0 64 76 b4 bd 7e 0c ed 3d f3 00 c8 bd b1 64 0a 3e
       -0.08811644 0.11574648 -0.09765806 0.13514973
0000c0 c5 d6 89 bd 10 29 56 bc b0 f5 23 be 62 b0 96 3d
       -0.06730417 -0.0130713135 -0.16011691 0.07357861
0000d0 00 1c 86 39 8a 26 a9 3d 62 11 d0 3d 41 78 22 3e
       0.00025579333 0.08259304 0.101595655 0.15866186
0000e0 8c 25 4d 3d 00 d0 4c b9 98 46 cf bd 80 e2 86 3d
       0.050084636 -0.00019532442 -0.101208866 0.0658617
0000f0 2c f6 8b 3d da 24 64 bd 96 51 b5 3d d0 dc 29 be
       0.06834063 -0.055699207 0.08853452 -0.1658814
000100 4b 86 e3 bd 1c e7 7a bd 89 9d 15 3c a1 e3 d6 3d
       -0.11109599 -0.06125556 0.009131798 0.104926355
000110 aa fd db bd a7 96 b2 bc f8 aa bd bd a2 72 90 bd
       -0.10741742 -0.021800352 -0.09261125 -0.070531145
000120 08 91 fa 3b 29 d5 d0 3b fc f1 ce bc ec d8 0f 3e
       0.0076466836 0.006373067 -0.025261872 0.14047593
000130 07 2b 89 bd be e8 2d 3e 82 46 0d bb 07 3a b7 3d
       -0.0669766 0.16983315 -0.0021556919 0.08946615
000140 db 7a 22 bd c4 5f 95 3d af bc 27 3e 1f 9d 1a 3e
       -0.039667945 0.072936565 0.16380571 0.15099
000150 26 8d 86 bd 16 1d da bc 0c 10 0e 3d 25 ba af 3d
       -0.06569891 -0.026625197 0.034683272 0.08580426
000160 c7 6e 49 3d 9a 29 36 3d b6 dd a0 3b 32 13 8a 3c
       0.04917791 0.044473268 0.0049092425 0.016854856
000170 44 4f 34 bd 65 4b 95 bd 63 b7 fa 3c 9d ec 97 3d
       -0.044020906 -0.07289771 0.030605024 0.07418177
000180 46 e8 12 3e 2b bd 2a 3e 2e 7f a2 bd 75 72 10 3e
       0.14346418 0.16673724 -0.07934414 0.14106162
000190 31 02 1c 3e 0e ee c2 3c b8 48 07 be b6 1c 52 3d
       0.15235211 0.023795154 -0.13211334 0.051296912
0001a0 e1 7f 93 3d 5a 0f f2 bd 26 6e 9d bd a1 15 8f 3d
       0.07202125 -0.11819334 -0.07687025 0.06986547
0001b0 5f 3f 13 3e ab 51 ab 3d dc 3b 20 3c d7 1c 1e 3e
       0.14379643 0.08365186 0.009779897 0.15440689
0001c0 a7 39 dd bd 39 27 9c 3d a7 ea a9 bd 40 72 2b 3e
       -0.10802012 0.07624669 -0.082967095 0.16742802
0001d0 8a 4d e5 bd 58 5b fa 3c b8 8b 13 be 7c 3c a1 3c
       -0.1119643 0.030561134 -0.14408767 0.019682162
0001e0 e3 ea 1a be e9 8f 31 3e a0 1f 13 be 1c 16 f8 3c
       -0.15128665 0.17340054 -0.14367533 0.03028398
0001f0 6c 0a 7b 3d fd 48 ca bd 5d f6 1b be 94 48 12 be
       0.061289236 -0.09877203 -0.15230699 -0.14285499
000200 0b 8e cf 3c a4 2e 0b 3e 30 58 8b bd ee b0 84 3b
       0.025336286 0.1359201 -0.0680393 0.004049412
000210 51 93 df 3d 88 6c 25 be 43 4b 47 bd 78 7f 9e 3d
       0.1091677 -0.16154683 -0.04865576 0.077391565
000220 6c 0d 03 bb 5c 67 87 bd f4 a5 b6 3d 30 1b 21 3e
       -0.0019997014 -0.06611511 0.08918372 0.15733027
000230 34 18 8e 3d 84 30 98 3d 41 2b 1b be bc f3 18 3e
       0.0693821 0.074311286 -0.15153219 0.14936727
000240 0e a7 19 bd 8d 87 ff bd c2 78 b3 bb 72 3b dd bd
       -0.03751283 -0.12477026 -0.005477042 -0.10802354
000250 71 9d 2d 3e bc 7e a8 bc 5b 3f 69 3d c0 9d 59 3d
       0.1695459 -0.020568244 0.056945186 0.053128958
000260 92 98 69 bd c3 9e 82 bd c9 f7 d2 bd 23 fd 4f bd
       -0.057030268 -0.06377938 -0.103011675 -0.05077852
000270 a0 2a 16 3e ca 46 ca 3d b8 03 1d 3c 1a 49 a5 3d
       0.14664698 0.09876783 0.009583406 0.08070584
000280 e3 0a 72 bd 10 70 b7 3d 4d a8 11 3e af 15 f3 bd
       -0.059092414 0.08956921 0.14224358 -0.1186937
000290 1b 57 17 3e 80 05 7e bc 83 9a 82 3d 8f c3 03 be
       0.14779322 -0.015504241 0.06377127 -0.12867568
0002a0 cd 44 c0 bb 40 f7 bc bd 5c 3b 36 bd e3 f1 10 be
       -0.0058675767 -0.09226847 -0.044490203 -0.14154772
0002b0 d3 00 b4 bd d3 43 f4 3d e2 35 c8 3d f8 6d 13 be
       -0.0878922 0.11926999 0.09775902 -0.14397418
0002c0 1f 98 d5 39 bc b9 cf 3d 3d 50 6f 3d 82 ef ef bd
       0.00040739865 0.10142848 0.05842613 -0.11715604
0002d0 d4 60 51 3d 03 bd ef bc 9b 0f 86 3d cd 0e d1 bd
       0.051117733 -0.029264932 0.06545945 -0.10207901
0002e0 d5 0d 8e bd e6 b9 bf bd 7d 5a 97 3d 66 0d a6 3b
       -0.06936232 -0.09361629 0.07390306 0.005067515
0002f0 e7 9b e5 bd db 9b 1e 3e c2 f7 b1 bd 71 3a b9 3c
       -0.11211377 0.15489142 -0.08689834 0.022610875
000300 eb 69 32 3d 1b 26 ba bd 83 31 71 bd 17 51 d6 bd
       0.043558042 -0.09089299 -0.05888511 -0.104646854
000310 66 69 6e 3d e2 3c 00 be f2 0d f6 3d 26 95 8b 3d
       0.058205985 -0.12523225 0.120143786 0.06815557
000320 1f b9 12 3e e8 dc 27 bd b3 ef 8d bd 69 6d 18 be
       0.1432843 -0.040982157 -0.069304846 -0.14885487
000330 76 54 0a 3d e1 bc 00 3e 92 96 75 3c 44 29 ff 3d
       0.033771954 0.12572052 0.014989512 0.12459043
000340 0c 1f 29 bd 40 53 f3 3d 62 87 65 3d 53 85 49 bd
       -0.041289374 0.11881113 0.056037314 -0.049199414
000350 5a f6 51 3d 7e 11 04 3e 87 2b f6 3c f3 8b ea 3d
       0.05126033 0.12897298 0.030050052 0.114524744
000360 48 e8 03 be c6 a4 9f 3d 4c 99 3d 3d 56 80 20 3e
       -0.12881577 0.077951 0.046288773 0.15673956
000370 a0 5e 90 bd cd 18 a1 bd 83 59 02 be e4 d6 59 bd
       -0.07049298 -0.078660585 -0.12729459 -0.05318345
000380 7b 54 e2 3d 58 3b 13 be d6 99 f2 bd 34 f7 61 3d
       0.110512696 -0.14378107 -0.11845748 0.055167392
000390 f3 a8 32 be c1 af c5 bd 88 98 4c 3d fd 3a 15 be
       -0.17447262 -0.09652663 0.049950153 -0.14573283
0003a0 f5 69 4d 3d 07 2c 25 be 39 d6 e9 bd a9 a7 38 3e
       0.050149877 -0.16130076 -0.11417813 0.18032707
0003b0 21 33 50 3d ab bc 48 bd e2 04 fd bd da d0 75 bd
       0.05083001 -0.049008053 -0.12354447 -0.06001363
0003c0 03 bf c9 3d a2 2f a2 3d 17 3a b3 3d 70 eb 8d bd
       0.09850886 0.079192415 0.08751314 -0.06929672
0003d0 4a 52 c0 3d b3 a6 f8 3d e5 dc 71 bb 1b 90 2a 3e
       0.093906954 0.1214117 -0.0036905345 0.16656534
0003e0 f5 67 1d be b8 df 5c bd c1 b8 1e be 51 3e b7 3d
       -0.15371688 -0.053924292 -0.15500166 0.08947433
0003f0 c7 3b 18 3e 83 a1 22 be 01 1a bf 3d 38 a0 06 3e
       0.14866553 -0.15881924 0.09331132 0.13147056

layers.2.bias f4 [64]
000000 23 af 86 bd c2 3d ff 3d 09 a2 63 3d f2 19 27 bd
       -0.065763734 0.12462951 0.05557445 -0.040796228
000010 ab 15 d4 3d a8 27 05 3e 53 81 29 3d 20 93 2d be
       0.10355695 0.13003409 0.0413831 -0.16950655
000020 9f 90 f5 bd 28 ec e1 bb 50 2b b4 3d aa d6 24 3e
       -0.11990475 -0.006894607 0.08797324 0.16097513
000030 0e b3 17 be da 64 e0 bd 88 d9 f8 bc f8 64 cd bd
       -0.14814398 -0.10956736 -0.030377164 -0.10029024
000040 15 7b 0e bd ec 29 0f 3e e2 66 d8 3d f3 50 5d bd
       -0.03478535 0.13980836 0.10566498 -0.054032277
000050 90 51 23 bd 70 d8 79 bc 8a e4 2e be 11 07 0a 3d
       -0.039872706 -0.015249357 -0.17079368 0.033698145
000060 b7 09 81 3d d4 01 2a 3e 8a 18 58 3d e6 75 d2 3d
       0.06300681 0.1660226 0.052757777 0.102763936
000070 bd 8d b7 3c d2 fb 2b be 50 58 da 3d 9c 34 c5 bd
       0.022406453 -0.1679528 0.106613755 -0.09629175
000080 22 ac b7 3d 13 da ee bc 4d 0e 06 3e 22 b2 28 3d
       0.089683786 -0.02915672 0.13091393 0.041185506
000090 c1 f0 0a be 70 f2 b1 bd 58 dc 09 3d 5e 6d d9 3d
       -0.13568403 -0.086888194 0.0336574 0.10616563
0000a0 ef 33 9e 3d 6e 0a 34 3d 70 99 d5 bd 58 2e d5 3d
       0.07724749 0.04395526 -0.104296565 0.1040923
0000b0 7e 62 df 3d fc 7e 70 bd 59 e0 7e bd e7 10 9b 3b
       0.10907458 -0.05871485 -0.062225673 0.0047322395
0000c0 b6 bf 22 be 29 83 87 3d 53 8f 6b bd ff 7f 31 be
       -0.15893444 0.06616814 -0.05750973 -0.17333983
0000d0 33 37 32 3e 4e 44 28 be a9 aa d1 bc ac c1 06 3e
       0.1740387 -0.16432306 -0.025594072 0.13159817
0000e0 ae 9d 0b be 3f 49 a2 3d 33 d7 2b bd a5 62 1f 3d
       -0.13634369 0.07924127 -0.041953277 0.038912434
0000f0 4e 16 7e bd 1b 88 be 3c 3a f8 c1 3d 3f d1 0b be
       -0.06203299 0.02325826 0.094711736 -0.1365404

layers.4.weight f4 [2, 64]
000000 e5 73 72 3d 88 32 b1 3d 0c e0 63 bd 16 47 41 3d
       0.059192557 0.08652216 -0.05563359 0.047186933
000010 51 ba 5c bd 08 6a 6d bd 9a 89 e5 3d 8e 1e 8b bd
       -0.053888623 -0.057962447 0.11207886 -0.06792937
000020 d3 59 b0 bd f0 a9 f7 3c 46 ba ee 3d 3f 0d c3 3d
       -0.086108826 0.0302324 0.116566226 0.09524011
000030 cd ff 82 bd 51 54 9e 3d 2b 7a 96 bd 3f 74 04 bd
       -0.063964464 0.07730926 -0.073475204 -0.032337423
000040 fc 99 13 3d f5 b8 2b 3d d0 86 30 3d 35 dc 00 be
       0.036035523 0.041924436 0.043097317 -0.12584002
000050 10 27 8f 3d 24 d7 3f bd 15 ee 6d bd 88 a3 fd bc
       0.069898725 -0.046836033 -0.05808838 -0.030961767
000060 cd eb 9e 3d 73 16 ee bc d0 3c d3 bc 10 57 8a bd
       0.07759819 -0.029063439 -0.025785834 -0.06754887
000070 79 92 e5 3d cf 8e ce 3d cb 29 c9 bc c8 5e 9b bd
       0.11209578 0.10085832 -0.024556061 -0.075864375
000080 1c 09 1c bd ab f2 76 bc 24 f9 8d bd b4 59 84 bd
       -0.038094625 -0.015072505 -0.069322854 -0.06462422
000090 c2 17 11 3c 68 34 f9 bd 40 cc 81 bd 1d e1 f5 bd
       0.008855762 -0.12168199 -0.06337786 -0.120058276
0000a0 5b cf f8 3d fe 79 9c bd e7 2d b8 bd 50 38 64 bd
       0.12148925 -0.07640456 -0.0899313 -0.055717766
0000b0 53 3f bb 3d c0 d3 be 3d 7d b1 95 bc e1 16 59 bc
       0.091429375 0.09317732 -0.01827311 -0.013250084
0000c0 3d 3c 73 3d 8d 23 c5 bd bc f3 c3 3d 89 36 8b 3d
       0.05938362 -0.096259214 0.09567973 0.06797511
0000d0 94 cb 06 bd f8 c2 98 bc 54 77 9c bd 63 33 63 bd
       -0.03290899 -0.018647656 -0.076399475 -0.055468928
0000e0 1d 27 60 3b dc bc 55 bd 75 75 a5 3c 7f 61 84 3d
       0.0034203 -0.052182063 0.02019761 0.064639084
0000f0 46 8c 42 3d b4 af 90 bd 52 e0 49 bc c5 b9 df bb
       0.047497056 -0.07064763 -0.012321549 -0.0068275654
000100 2e d9 bc 3d 28 32 c7 3d 03 c6 8d bd 1b c9 ad 3d
       0.09221111 0.097263634 -0.06922533 0.084856234
000110 0a c1 03 bc d2 cb e0 3d b9 cc 64 3d 44 23 39 3d
       -0.00804163 0.10976376 0.0558593 0.045199648
000120 5b 94 e1 3d cf a5 ba 3d 7c 64 b6 bd 90 fe f7 bb
       0.11014625 0.09113657 -0.089058846 -0.007568188
000130 24 f3 78 3c 64 57 a6 bd b2 a3 fa bc b6 3f b6 3c
       0.015194688 -0.08122137 -0.030595634 0.022247177
000140 c3 84 b2 3c 2c 77 a7 bd e4 89 f7 bd 57 eb df bd
       0.021791821 -0.08177027 -0.120868474 -0.109335594
000150 f6 05 f7 bc 22 c4 f1 bd 0d 5b aa 3d 25 70 75 3d
       -0.03015421 -0.118049875 0.08318148 0.059921402
000160 71 e3 71 bd f9 f7 b0 3d de e5 de 3c 3a 12 d0 bd
       -0.059054796 0.08641047 0.027209219 -0.101597264
000170 b8 c0 82 3c f5 3c ac bd 18 c2 cd 3d 3c 62 93 bd
       0.015961036 -0.08410064 0.10046786 -0.07196471
000180 8b a1 b8 3d 21 fe 9e 3d d5 63 9b bd 03 80 9d 3d
       0.09015187 0.07763315 -0.07587401 0.07690432
000190 86 65 c7 3d c4 f4 90 bd ef 90 37 3d 0c 5b 12 3d
       0.09736161 -0.07077935 0.044815954 0.03573136
0001a0 ac f9 db 3d 16 d3 ad bb 6c 3b 08 bd 2e c1 0d bc
       0.107409805 -0.0053047044 -0.033259794 -0.008652015
0001b0 50 bc 99 bb c5 b6 c5 bd 98 9d ae bd d7 8c c4 bd
       -0.004691638 -0.09654001 -0.08526152 -0.095971756
0001c0 dc 3f 5b bd f6 02 af bd 94 3c da bc 90 34 8c 3d
       -0.053527698 -0.08545487 -0.026640214 0.06845963
0001d0 fa d1 cd 3d c0 23 53 bb 8a f9 fe 3b 6b 69 ef 3d
       0.100498155 -0.0032217354 0.007781212 0.11690029
0001e0 3f b9 ca bc d3 dd 00 bd da 14 fb bd 1b 77 cd 3c
       -0.024746535 -0.031461548 -0.122598365 0.025081208
0001f0 ca 5a ae bd 2d 9f bf bc 3d d7 c8 bc 90 1e 86 3d
       -0.085134104 -0.02339133 -0.024516696 0.06548798

layers.4.bias f4 [2]
000000 d3 52 81 3d 3b 84 86 bd
       0.063146256 -0.0656819
